…
2020-11-15 15:50:12.296564: I tensorflow/compiler/xla/service/service.cc:176]   StreamExecutor devi
ce (0): GeForce GT 730, Compute Capability 3.5
1 Physical GPUs, 1 Logical GPUs
Model: "model"
__________________________________________________________________________________________________
Layer (type)                    Output Shape         Param #     Connected to
==================================================================================================
input_1 (InputLayer)            [(None, 64, 128, 3)] 0
__________________________________________________________________________________________________
conv2d (Conv2D)                 (None, 64, 128, 32)  896         input_1[0][0]
__________________________________________________________________________________________________
batch_normalization (BatchNorma (None, 64, 128, 32)  128         conv2d[0][0]
__________________________________________________________________________________________________
activation (Activation)         (None, 64, 128, 32)  0           batch_normalization[0][0]
__________________________________________________________________________________________________
conv2d_1 (Conv2D)               (None, 64, 128, 32)  9248        activation[0][0]
__________________________________________________________________________________________________
batch_normalization_1 (BatchNor (None, 64, 128, 32)  128         conv2d_1[0][0]
__________________________________________________________________________________________________
activation_1 (Activation)       (None, 64, 128, 32)  0           batch_normalization_1[0][0]
__________________________________________________________________________________________________
max_pooling2d (MaxPooling2D)    (None, 32, 64, 32)   0           activation_1[0][0]
__________________________________________________________________________________________________
conv2d_2 (Conv2D)               (None, 32, 64, 64)   18496       max_pooling2d[0][0]
__________________________________________________________________________________________________
batch_normalization_2 (BatchNor (None, 32, 64, 64)   256         conv2d_2[0][0]
__________________________________________________________________________________________________
activation_2 (Activation)       (None, 32, 64, 64)   0           batch_normalization_2[0][0]
__________________________________________________________________________________________________
conv2d_3 (Conv2D)               (None, 32, 64, 64)   36928       activation_2[0][0]
__________________________________________________________________________________________________
batch_normalization_3 (BatchNor (None, 32, 64, 64)   256         conv2d_3[0][0]
__________________________________________________________________________________________________
activation_3 (Activation)       (None, 32, 64, 64)   0           batch_normalization_3[0][0]
__________________________________________________________________________________________________
max_pooling2d_1 (MaxPooling2D)  (None, 16, 32, 64)   0           activation_3[0][0]
__________________________________________________________________________________________________
conv2d_4 (Conv2D)               (None, 16, 32, 128)  73856       max_pooling2d_1[0][0]
__________________________________________________________________________________________________
batch_normalization_4 (BatchNor (None, 16, 32, 128)  512         conv2d_4[0][0]
__________________________________________________________________________________________________
activation_4 (Activation)       (None, 16, 32, 128)  0           batch_normalization_4[0][0]
__________________________________________________________________________________________________
conv2d_5 (Conv2D)               (None, 16, 32, 128)  147584      activation_4[0][0]
__________________________________________________________________________________________________
batch_normalization_5 (BatchNor (None, 16, 32, 128)  512         conv2d_5[0][0]
__________________________________________________________________________________________________
activation_5 (Activation)       (None, 16, 32, 128)  0           batch_normalization_5[0][0]
__________________________________________________________________________________________________
max_pooling2d_2 (MaxPooling2D)  (None, 8, 16, 128)   0           activation_5[0][0]
__________________________________________________________________________________________________
conv2d_6 (Conv2D)               (None, 8, 16, 256)   295168      max_pooling2d_2[0][0]
__________________________________________________________________________________________________
batch_normalization_6 (BatchNor (None, 8, 16, 256)   1024        conv2d_6[0][0]
__________________________________________________________________________________________________
activation_6 (Activation)       (None, 8, 16, 256)   0           batch_normalization_6[0][0]
__________________________________________________________________________________________________
conv2d_7 (Conv2D)               (None, 8, 16, 256)   590080      activation_6[0][0]
__________________________________________________________________________________________________
batch_normalization_7 (BatchNor (None, 8, 16, 256)   1024        conv2d_7[0][0]
__________________________________________________________________________________________________
activation_7 (Activation)       (None, 8, 16, 256)   0           batch_normalization_7[0][0]
__________________________________________________________________________________________________
max_pooling2d_3 (MaxPooling2D)  (None, 4, 8, 256)    0           activation_7[0][0]
__________________________________________________________________________________________________
conv2d_8 (Conv2D)               (None, 4, 8, 256)    590080      max_pooling2d_3[0][0]
__________________________________________________________________________________________________
batch_normalization_8 (BatchNor (None, 4, 8, 256)    1024        conv2d_8[0][0]
__________________________________________________________________________________________________
activation_8 (Activation)       (None, 4, 8, 256)    0           batch_normalization_8[0][0]
__________________________________________________________________________________________________
conv2d_9 (Conv2D)               (None, 4, 8, 256)    590080      activation_8[0][0]
__________________________________________________________________________________________________
batch_normalization_9 (BatchNor (None, 4, 8, 256)    1024        conv2d_9[0][0]
__________________________________________________________________________________________________
activation_9 (Activation)       (None, 4, 8, 256)    0           batch_normalization_9[0][0]
__________________________________________________________________________________________________
max_pooling2d_4 (MaxPooling2D)  (None, 2, 4, 256)    0           activation_9[0][0]
__________________________________________________________________________________________________
flatten (Flatten)               (None, 2048)         0           max_pooling2d_4[0][0]
__________________________________________________________________________________________________
char_1 (Dense)                  (None, 38)           77862       flatten[0][0]
__________________________________________________________________________________________________
char_2 (Dense)                  (None, 38)           77862       flatten[0][0]
__________________________________________________________________________________________________
char_3 (Dense)                  (None, 38)           77862       flatten[0][0]
__________________________________________________________________________________________________
char_4 (Dense)                  (None, 38)           77862       flatten[0][0]
__________________________________________________________________________________________________
char_5 (Dense)                  (None, 38)           77862       flatten[0][0]
__________________________________________________________________________________________________
char_6 (Dense)                  (None, 38)           77862       flatten[0][0]
==================================================================================================
Total params: 2,825,476
Trainable params: 2,822,532
Non-trainable params: 2,944
__________________________________________________________________________________________________
WARNING:tensorflow:From ./train.py:175: Model.fit_generator (from tensorflow.python.keras.engine.tr
aining) is deprecated and will be removed in a future version.
…
