…
2020-11-16 03:31:49.984221: I tensorflow/compiler/xla/service/service.cc:176]   StreamExecutor devi
ce (0): GeForce GT 730, Compute Capability 3.5
1 Physical GPUs, 1 Logical GPUs
Model: "model"
__________________________________________________________________________________________________
Layer (type)                    Output Shape         Param #     Connected to
==================================================================================================
input_1 (InputLayer)            [(None, 64, 128, 1)] 0
__________________________________________________________________________________________________
conv2d (Conv2D)                 (None, 64, 128, 32)  320         input_1[0][0]
__________________________________________________________________________________________________
conv2d_1 (Conv2D)               (None, 64, 128, 32)  9248        conv2d[0][0]
__________________________________________________________________________________________________
batch_normalization (BatchNorma (None, 64, 128, 32)  128         conv2d_1[0][0]
__________________________________________________________________________________________________
conv2d_2 (Conv2D)               (None, 64, 128, 32)  9248        batch_normalization[0][0]
__________________________________________________________________________________________________
conv2d_3 (Conv2D)               (None, 64, 128, 32)  9248        conv2d_2[0][0]
__________________________________________________________________________________________________
batch_normalization_1 (BatchNor (None, 64, 128, 32)  128         conv2d_3[0][0]
__________________________________________________________________________________________________
max_pooling2d (MaxPooling2D)    (None, 32, 64, 32)   0           batch_normalization_1[0][0]
__________________________________________________________________________________________________
conv2d_4 (Conv2D)               (None, 32, 64, 64)   18496       max_pooling2d[0][0]
__________________________________________________________________________________________________
conv2d_5 (Conv2D)               (None, 32, 64, 64)   36928       conv2d_4[0][0]
__________________________________________________________________________________________________
batch_normalization_2 (BatchNor (None, 32, 64, 64)   256         conv2d_5[0][0]
__________________________________________________________________________________________________
conv2d_6 (Conv2D)               (None, 32, 64, 64)   36928       batch_normalization_2[0][0]
__________________________________________________________________________________________________
conv2d_7 (Conv2D)               (None, 32, 64, 64)   36928       conv2d_6[0][0]
__________________________________________________________________________________________________
batch_normalization_3 (BatchNor (None, 32, 64, 64)   256         conv2d_7[0][0]
__________________________________________________________________________________________________
max_pooling2d_1 (MaxPooling2D)  (None, 16, 32, 64)   0           batch_normalization_3[0][0]
__________________________________________________________________________________________________
conv2d_8 (Conv2D)               (None, 16, 32, 128)  73856       max_pooling2d_1[0][0]
__________________________________________________________________________________________________
conv2d_9 (Conv2D)               (None, 16, 32, 128)  147584      conv2d_8[0][0]
__________________________________________________________________________________________________
batch_normalization_4 (BatchNor (None, 16, 32, 128)  512         conv2d_9[0][0]
__________________________________________________________________________________________________
conv2d_10 (Conv2D)              (None, 16, 32, 128)  147584      batch_normalization_4[0][0]
__________________________________________________________________________________________________
conv2d_11 (Conv2D)              (None, 16, 32, 128)  147584      conv2d_10[0][0]
__________________________________________________________________________________________________
batch_normalization_5 (BatchNor (None, 16, 32, 128)  512         conv2d_11[0][0]
__________________________________________________________________________________________________
max_pooling2d_2 (MaxPooling2D)  (None, 8, 16, 128)   0           batch_normalization_5[0][0]
__________________________________________________________________________________________________
conv2d_12 (Conv2D)              (None, 8, 16, 256)   295168      max_pooling2d_2[0][0]
__________________________________________________________________________________________________
conv2d_13 (Conv2D)              (None, 8, 16, 256)   590080      conv2d_12[0][0]
__________________________________________________________________________________________________
batch_normalization_6 (BatchNor (None, 8, 16, 256)   1024        conv2d_13[0][0]
__________________________________________________________________________________________________
conv2d_14 (Conv2D)              (None, 8, 16, 256)   590080      batch_normalization_6[0][0]
__________________________________________________________________________________________________
conv2d_15 (Conv2D)              (None, 8, 16, 256)   590080      conv2d_14[0][0]
__________________________________________________________________________________________________
batch_normalization_7 (BatchNor (None, 8, 16, 256)   1024        conv2d_15[0][0]
__________________________________________________________________________________________________
max_pooling2d_3 (MaxPooling2D)  (None, 4, 8, 256)    0           batch_normalization_7[0][0]
__________________________________________________________________________________________________
conv2d_16 (Conv2D)              (None, 4, 8, 256)    590080      max_pooling2d_3[0][0]
__________________________________________________________________________________________________
conv2d_17 (Conv2D)              (None, 4, 8, 256)    590080      conv2d_16[0][0]
__________________________________________________________________________________________________
batch_normalization_8 (BatchNor (None, 4, 8, 256)    1024        conv2d_17[0][0]
__________________________________________________________________________________________________
conv2d_18 (Conv2D)              (None, 4, 8, 256)    590080      batch_normalization_8[0][0]
__________________________________________________________________________________________________
conv2d_19 (Conv2D)              (None, 4, 8, 256)    590080      conv2d_18[0][0]
__________________________________________________________________________________________________
batch_normalization_9 (BatchNor (None, 4, 8, 256)    1024        conv2d_19[0][0]
__________________________________________________________________________________________________
max_pooling2d_4 (MaxPooling2D)  (None, 2, 4, 256)    0           batch_normalization_9[0][0]
__________________________________________________________________________________________________
flatten (Flatten)               (None, 2048)         0           max_pooling2d_4[0][0]
__________________________________________________________________________________________________
char_1 (Dense)                  (None, 38)           77862       flatten[0][0]
__________________________________________________________________________________________________
char_2 (Dense)                  (None, 38)           77862       flatten[0][0]
__________________________________________________________________________________________________
char_3 (Dense)                  (None, 38)           77862       flatten[0][0]
__________________________________________________________________________________________________
char_4 (Dense)                  (None, 38)           77862       flatten[0][0]
__________________________________________________________________________________________________
char_5 (Dense)                  (None, 38)           77862       flatten[0][0]
__________________________________________________________________________________________________
char_6 (Dense)                  (None, 38)           77862       flatten[0][0]
==================================================================================================
Total params: 5,572,740
Trainable params: 5,569,796
Non-trainable params: 2,944
__________________________________________________________________________________________________
WARNING:tensorflow:From ./train.py:183: Model.fit_generator (from tensorflow.python.keras.engine.tr
aining) is deprecated and will be removed in a future version.
…
